…
                   from  n    params  module                                       arguments                     
WARNING ⚠️ no model scale passed. Assuming scale='x'.

                   from  n    params  module                                       arguments                     

                   from  n    params  module                                       arguments                     
WARNING ⚠️ no model scale passed. Assuming scale='x'.

                   from  n    params  module                                       arguments                     
  0                  -1  1     25792  ultralytics.nn.modules.block.HGStem          [3, 32, 64]                   
  0                  -1  1     25792  ultralytics.nn.modules.block.HGStem          [3, 32, 64]                   
  0                  -1  1     25792  ultralytics.nn.modules.block.HGStem          [3, 32, 64]                   
  0                  -1  1     25792  ultralytics.nn.modules.block.HGStem          [3, 32, 64]                   
  0                  -1  1     25792  ultralytics.nn.modules.block.HGStem          [3, 32, 64]                   
  1                  -1  6    259200  ultralytics.nn.modules.block.HGBlock         [64, 64, 128, 3, 6]           
  1                  -1  6    259200  ultralytics.nn.modules.block.HGBlock         [64, 64, 128, 3, 6]           
  1                  -1  6    259200  ultralytics.nn.modules.block.HGBlock         [64, 64, 128, 3, 6]           
  2                  -1  1      1408  ultralytics.nn.modules.conv.DWConv           [128, 128, 3, 2, 1, False]    
  2                  -1  1      1408  ultralytics.nn.modules.conv.DWConv           [128, 128, 3, 2, 1, False]    
  2                  -1  1      1408  ultralytics.nn.modules.conv.DWConv           [128, 128, 3, 2, 1, False]    
  1                  -1  6    259200  ultralytics.nn.modules.block.HGBlock         [64, 64, 128, 3, 6]           
  1                  -1  6    259200  ultralytics.nn.modules.block.HGBlock         [64, 64, 128, 3, 6]           
  2                  -1  1      1408  ultralytics.nn.modules.conv.DWConv           [128, 128, 3, 2, 1, False]    
  2                  -1  1      1408  ultralytics.nn.modules.conv.DWConv           [128, 128, 3, 2, 1, False]    
  3                  -1  6   1248256  ultralytics.nn.modules.block.HGBlock         [128, 128, 512, 3, 6]         
  3                  -1  6   1248256  ultralytics.nn.modules.block.HGBlock         [128, 128, 512, 3, 6]         
  3                  -1  6   1248256  ultralytics.nn.modules.block.HGBlock         [128, 128, 512, 3, 6]         
  3                  -1  6   1248256  ultralytics.nn.modules.block.HGBlock         [128, 128, 512, 3, 6]         
  3                  -1  6   1248256  ultralytics.nn.modules.block.HGBlock         [128, 128, 512, 3, 6]         
  4                  -1  6   1788928  ultralytics.nn.modules.block.HGBlock         [512, 128, 512, 3, 6, False, True]
  5                  -1  1      5632  ultralytics.nn.modules.conv.DWConv           [512, 512, 3, 2, 1, False]    
  4                  -1  6   1788928  ultralytics.nn.modules.block.HGBlock         [512, 128, 512, 3, 6, False, True]
  4                  -1  6   1788928  ultralytics.nn.modules.block.HGBlock         [512, 128, 512, 3, 6, False, True]
  5                  -1  1      5632  ultralytics.nn.modules.conv.DWConv           [512, 512, 3, 2, 1, False]    
  5                  -1  1      5632  ultralytics.nn.modules.conv.DWConv           [512, 512, 3, 2, 1, False]    
  4                  -1  6   1788928  ultralytics.nn.modules.block.HGBlock         [512, 128, 512, 3, 6, False, True]
  4                  -1  6   1788928  ultralytics.nn.modules.block.HGBlock         [512, 128, 512, 3, 6, False, True]
  5                  -1  1      5632  ultralytics.nn.modules.conv.DWConv           [512, 512, 3, 2, 1, False]    
  5                  -1  1      5632  ultralytics.nn.modules.conv.DWConv           [512, 512, 3, 2, 1, False]    
  6                  -1  6   2079232  ultralytics.nn.modules.block.HGBlock         [512, 256, 1024, 5, 6, True, False]
  6                  -1  6   2079232  ultralytics.nn.modules.block.HGBlock         [512, 256, 1024, 5, 6, True, False]
  6                  -1  6   2079232  ultralytics.nn.modules.block.HGBlock         [512, 256, 1024, 5, 6, True, False]
  6                  -1  6   2079232  ultralytics.nn.modules.block.HGBlock         [512, 256, 1024, 5, 6, True, False]
  6                  -1  6   2079232  ultralytics.nn.modules.block.HGBlock         [512, 256, 1024, 5, 6, True, False]
  7                  -1  6   2472448  ultralytics.nn.modules.block.HGBlock         [1024, 256, 1024, 5, 6, True, True]
  7                  -1  6   2472448  ultralytics.nn.modules.block.HGBlock         [1024, 256, 1024, 5, 6, True, True]
  7                  -1  6   2472448  ultralytics.nn.modules.block.HGBlock         [1024, 256, 1024, 5, 6, True, True]
  7                  -1  6   2472448  ultralytics.nn.modules.block.HGBlock         [1024, 256, 1024, 5, 6, True, True]
  7                  -1  6   2472448  ultralytics.nn.modules.block.HGBlock         [1024, 256, 1024, 5, 6, True, True]
  8                  -1  6   2472448  ultralytics.nn.modules.block.HGBlock         [1024, 256, 1024, 5, 6, True, True]
  8                  -1  6   2472448  ultralytics.nn.modules.block.HGBlock         [1024, 256, 1024, 5, 6, True, True]
  8                  -1  6   2472448  ultralytics.nn.modules.block.HGBlock         [1024, 256, 1024, 5, 6, True, True]
  8                  -1  6   2472448  ultralytics.nn.modules.block.HGBlock         [1024, 256, 1024, 5, 6, True, True]
  8                  -1  6   2472448  ultralytics.nn.modules.block.HGBlock         [1024, 256, 1024, 5, 6, True, True]
  9                  -1  6   2472448  ultralytics.nn.modules.block.HGBlock         [1024, 256, 1024, 5, 6, True, True]
  9                  -1  6   2472448  ultralytics.nn.modules.block.HGBlock         [1024, 256, 1024, 5, 6, True, True]
  9                  -1  6   2472448  ultralytics.nn.modules.block.HGBlock         [1024, 256, 1024, 5, 6, True, True]
  9                  -1  6   2472448  ultralytics.nn.modules.block.HGBlock         [1024, 256, 1024, 5, 6, True, True]
  9                  -1  6   2472448  ultralytics.nn.modules.block.HGBlock         [1024, 256, 1024, 5, 6, True, True]
 10                  -1  6   2472448  ultralytics.nn.modules.block.HGBlock         [1024, 256, 1024, 5, 6, True, True]
 11                  -1  1     11264  ultralytics.nn.modules.conv.DWConv           [1024, 1024, 3, 2, 1, False]  
 10                  -1  6   2472448  ultralytics.nn.modules.block.HGBlock         [1024, 256, 1024, 5, 6, True, True]
 11                  -1  1     11264  ultralytics.nn.modules.conv.DWConv           [1024, 1024, 3, 2, 1, False]  
 10                  -1  6   2472448  ultralytics.nn.modules.block.HGBlock         [1024, 256, 1024, 5, 6, True, True]
 11                  -1  1     11264  ultralytics.nn.modules.conv.DWConv           [1024, 1024, 3, 2, 1, False]  
 10                  -1  6   2472448  ultralytics.nn.modules.block.HGBlock         [1024, 256, 1024, 5, 6, True, True]
 10                  -1  6   2472448  ultralytics.nn.modules.block.HGBlock         [1024, 256, 1024, 5, 6, True, True]
 11                  -1  1     11264  ultralytics.nn.modules.conv.DWConv           [1024, 1024, 3, 2, 1, False]  
 11                  -1  1     11264  ultralytics.nn.modules.conv.DWConv           [1024, 1024, 3, 2, 1, False]  
 12                  -1  6   8221696  ultralytics.nn.modules.block.HGBlock         [1024, 512, 2048, 5, 6, True, False]
 12                  -1  6   8221696  ultralytics.nn.modules.block.HGBlock         [1024, 512, 2048, 5, 6, True, False]
 12                  -1  6   8221696  ultralytics.nn.modules.block.HGBlock         [1024, 512, 2048, 5, 6, True, False]
 12                  -1  6   8221696  ultralytics.nn.modules.block.HGBlock         [1024, 512, 2048, 5, 6, True, False]
 12                  -1  6   8221696  ultralytics.nn.modules.block.HGBlock         [1024, 512, 2048, 5, 6, True, False]
 13                  -1  6   9794560  ultralytics.nn.modules.block.HGBlock         [2048, 512, 2048, 5, 6, True, True]
 13                  -1  6   9794560  ultralytics.nn.modules.block.HGBlock         [2048, 512, 2048, 5, 6, True, True]
 13                  -1  6   9794560  ultralytics.nn.modules.block.HGBlock         [2048, 512, 2048, 5, 6, True, True]
 13                  -1  6   9794560  ultralytics.nn.modules.block.HGBlock         [2048, 512, 2048, 5, 6, True, True]
 13                  -1  6   9794560  ultralytics.nn.modules.block.HGBlock         [2048, 512, 2048, 5, 6, True, True]
 14                  -1  1    787200  ultralytics.nn.modules.conv.Conv             [2048, 384, 1, 1, None, 1, 1, False]
 14                  -1  1    787200  ultralytics.nn.modules.conv.Conv             [2048, 384, 1, 1, None, 1, 1, False]
 14                  -1  1    787200  ultralytics.nn.modules.conv.Conv             [2048, 384, 1, 1, None, 1, 1, False]
 14                  -1  1    787200  ultralytics.nn.modules.conv.Conv             [2048, 384, 1, 1, None, 1, 1, False]
 14                  -1  1    787200  ultralytics.nn.modules.conv.Conv             [2048, 384, 1, 1, None, 1, 1, False]
 15                  -1  1   2168192  ultralytics.nn.modules.transformer.AIFI      [384, 2048, 8]                
 15                  -1  1   2168192  ultralytics.nn.modules.transformer.AIFI      [384, 2048, 8]                
 16                  -1  1    148224  ultralytics.nn.modules.conv.Conv             [384, 384, 1, 1]              
 17                  -1  1         0  torch.nn.modules.upsampling.Upsample         [None, 2, 'nearest']          
 16                  -1  1    148224  ultralytics.nn.modules.conv.Conv             [384, 384, 1, 1]              
 17                  -1  1         0  torch.nn.modules.upsampling.Upsample         [None, 2, 'nearest']          
 15                  -1  1   2168192  ultralytics.nn.modules.transformer.AIFI      [384, 2048, 8]                
 16                  -1  1    148224  ultralytics.nn.modules.conv.Conv             [384, 384, 1, 1]              
 17                  -1  1         0  torch.nn.modules.upsampling.Upsample         [None, 2, 'nearest']          
 18                  10  1    393984  ultralytics.nn.modules.conv.Conv             [1024, 384, 1, 1, None, 1, 1, False]
 19            [-2, -1]  1         0  ultralytics.nn.modules.conv.Concat           [1]                           
 15                  -1  1   2168192  ultralytics.nn.modules.transformer.AIFI      [384, 2048, 8]                
 15                  -1  1   2168192  ultralytics.nn.modules.transformer.AIFI      [384, 2048, 8]                
 18                  10  1    393984  ultralytics.nn.modules.conv.Conv             [1024, 384, 1, 1, None, 1, 1, False]
 19            [-2, -1]  1         0  ultralytics.nn.modules.conv.Concat           [1]                           
 16                  -1  1    148224  ultralytics.nn.modules.conv.Conv             [384, 384, 1, 1]              
 16                  -1  1    148224  ultralytics.nn.modules.conv.Conv             [384, 384, 1, 1]              
 17                  -1  1         0  torch.nn.modules.upsampling.Upsample         [None, 2, 'nearest']          
 17                  -1  1         0  torch.nn.modules.upsampling.Upsample         [None, 2, 'nearest']          
 18                  10  1    393984  ultralytics.nn.modules.conv.Conv             [1024, 384, 1, 1, None, 1, 1, False]
 19            [-2, -1]  1         0  ultralytics.nn.modules.conv.Concat           [1]                           
 18                  10  1    393984  ultralytics.nn.modules.conv.Conv             [1024, 384, 1, 1, None, 1, 1, False]
 19            [-2, -1]  1         0  ultralytics.nn.modules.conv.Concat           [1]                           
 18                  10  1    393984  ultralytics.nn.modules.conv.Conv             [1024, 384, 1, 1, None, 1, 1, False]
 19            [-2, -1]  1         0  ultralytics.nn.modules.conv.Concat           [1]                           
 20                  -1  3   5019648  ultralytics.nn.modules.block.RepC3           [768, 384, 3]                 
 20                  -1  3   5019648  ultralytics.nn.modules.block.RepC3           [768, 384, 3]                 
 21                  -1  1    148224  ultralytics.nn.modules.conv.Conv             [384, 384, 1, 1]              
 22                  -1  1         0  torch.nn.modules.upsampling.Upsample         [None, 2, 'nearest']          
 21                  -1  1    148224  ultralytics.nn.modules.conv.Conv             [384, 384, 1, 1]              
 20                  -1  3   5019648  ultralytics.nn.modules.block.RepC3           [768, 384, 3]                 
 22                  -1  1         0  torch.nn.modules.upsampling.Upsample         [None, 2, 'nearest']          
 23                   4  1    197376  ultralytics.nn.modules.conv.Conv             [512, 384, 1, 1, None, 1, 1, False]
 24            [-2, -1]  1         0  ultralytics.nn.modules.conv.Concat           [1]                           
 21                  -1  1    148224  ultralytics.nn.modules.conv.Conv             [384, 384, 1, 1]              
 22                  -1  1         0  torch.nn.modules.upsampling.Upsample         [None, 2, 'nearest']          
 23                   4  1    197376  ultralytics.nn.modules.conv.Conv             [512, 384, 1, 1, None, 1, 1, False]
 24            [-2, -1]  1         0  ultralytics.nn.modules.conv.Concat           [1]                           
 20                  -1  3   5019648  ultralytics.nn.modules.block.RepC3           [768, 384, 3]                 
 20                  -1  3   5019648  ultralytics.nn.modules.block.RepC3           [768, 384, 3]                 
 23                   4  1    197376  ultralytics.nn.modules.conv.Conv             [512, 384, 1, 1, None, 1, 1, False]
 24            [-2, -1]  1         0  ultralytics.nn.modules.conv.Concat           [1]                           
 21                  -1  1    148224  ultralytics.nn.modules.conv.Conv             [384, 384, 1, 1]              
 22                  -1  1         0  torch.nn.modules.upsampling.Upsample         [None, 2, 'nearest']          
 21                  -1  1    148224  ultralytics.nn.modules.conv.Conv             [384, 384, 1, 1]              
 22                  -1  1         0  torch.nn.modules.upsampling.Upsample         [None, 2, 'nearest']          
 23                   4  1    197376  ultralytics.nn.modules.conv.Conv             [512, 384, 1, 1, None, 1, 1, False]
 24            [-2, -1]  1         0  ultralytics.nn.modules.conv.Concat           [1]                           
 23                   4  1    197376  ultralytics.nn.modules.conv.Conv             [512, 384, 1, 1, None, 1, 1, False]
 24            [-2, -1]  1         0  ultralytics.nn.modules.conv.Concat           [1]                           
 25                  -1  3   5019648  ultralytics.nn.modules.block.RepC3           [768, 384, 3]                 
 25                  -1  3   5019648  ultralytics.nn.modules.block.RepC3           [768, 384, 3]                 
 25                  -1  3   5019648  ultralytics.nn.modules.block.RepC3           [768, 384, 3]                 
 25                  -1  3   5019648  ultralytics.nn.modules.block.RepC3           [768, 384, 3]                 
 25                  -1  3   5019648  ultralytics.nn.modules.block.RepC3           [768, 384, 3]                 
 26                  -1  1   1327872  ultralytics.nn.modules.conv.Conv             [384, 384, 3, 2]              
 27            [-1, 21]  1         0  ultralytics.nn.modules.conv.Concat           [1]                           
 26                  -1  1   1327872  ultralytics.nn.modules.conv.Conv             [384, 384, 3, 2]              
 27            [-1, 21]  1         0  ultralytics.nn.modules.conv.Concat           [1]                           
 26                  -1  1   1327872  ultralytics.nn.modules.conv.Conv             [384, 384, 3, 2]              
 27            [-1, 21]  1         0  ultralytics.nn.modules.conv.Concat           [1]                           
 26                  -1  1   1327872  ultralytics.nn.modules.conv.Conv             [384, 384, 3, 2]              
 27            [-1, 21]  1         0  ultralytics.nn.modules.conv.Concat           [1]                           
 26                  -1  1   1327872  ultralytics.nn.modules.conv.Conv             [384, 384, 3, 2]              
 27            [-1, 21]  1         0  ultralytics.nn.modules.conv.Concat           [1]                           
 28                  -1  3   5019648  ultralytics.nn.modules.block.RepC3           [768, 384, 3]                 
 28                  -1  3   5019648  ultralytics.nn.modules.block.RepC3           [768, 384, 3]                 
 28                  -1  3   5019648  ultralytics.nn.modules.block.RepC3           [768, 384, 3]                 
 28                  -1  3   5019648  ultralytics.nn.modules.block.RepC3           [768, 384, 3]                 
 28                  -1  3   5019648  ultralytics.nn.modules.block.RepC3           [768, 384, 3]                 
 29                  -1  1   1327872  ultralytics.nn.modules.conv.Conv             [384, 384, 3, 2]              
 30            [-1, 16]  1         0  ultralytics.nn.modules.conv.Concat           [1]                           
 29                  -1  1   1327872  ultralytics.nn.modules.conv.Conv             [384, 384, 3, 2]              
 30            [-1, 16]  1         0  ultralytics.nn.modules.conv.Concat           [1]                           
 29                  -1  1   1327872  ultralytics.nn.modules.conv.Conv             [384, 384, 3, 2]              
 30            [-1, 16]  1         0  ultralytics.nn.modules.conv.Concat           [1]                           
 29                  -1  1   1327872  ultralytics.nn.modules.conv.Conv             [384, 384, 3, 2]              
 30            [-1, 16]  1         0  ultralytics.nn.modules.conv.Concat           [1]                           
 29                  -1  1   1327872  ultralytics.nn.modules.conv.Conv             [384, 384, 3, 2]              
 30            [-1, 16]  1         0  ultralytics.nn.modules.conv.Concat           [1]                           
 31                  -1  3   5019648  ultralytics.nn.modules.block.RepC3           [768, 384, 3]                 
 31                  -1  3   5019648  ultralytics.nn.modules.block.RepC3           [768, 384, 3]                 
 31                  -1  3   5019648  ultralytics.nn.modules.block.RepC3           [768, 384, 3]                 
 31                  -1  3   5019648  ultralytics.nn.modules.block.RepC3           [768, 384, 3]                 
 31                  -1  3   5019648  ultralytics.nn.modules.block.RepC3           [768, 384, 3]                 
 32        [25, 28, 31]  1   7402211  ultralytics.nn.modules.head.RTDETRDecoder    [1, [384, 384, 384]]          
 32        [25, 28, 31]  1   7402211  ultralytics.nn.modules.head.RTDETRDecoder    [1, [384, 384, 384]]          
 32        [25, 28, 31]  1   7402211  ultralytics.nn.modules.head.RTDETRDecoder    [1, [384, 384, 384]]          
 32        [25, 28, 31]  1   7402211  ultralytics.nn.modules.head.RTDETRDecoder    [1, [384, 384, 384]]          
 32        [25, 28, 31]  1   7402211  ultralytics.nn.modules.head.RTDETRDecoder    [1, [384, 384, 384]]          
rt-detr-x summary: 575 layers, 67,305,507 parameters, 67,305,507 gradients, 232.3 GFLOPs

rt-detr-x summary: 575 layers, 67,305,507 parameters, 67,305,507 gradients, 232.3 GFLOPs

rt-detr-x summary: 575 layers, 67,305,507 parameters, 67,305,507 gradients, 232.3 GFLOPs

rt-detr-x summary: 575 layers, 67,305,507 parameters, 67,305,507 gradients, 232.3 GFLOPs

rt-detr-x summary: 575 layers, 67,305,507 parameters, 67,305,507 gradients, 232.3 GFLOPs
…
